colab - codigo de treino/mnist_cnn_small_int8.tflite (tflite, 8560 bytes, 8 tensors)

tfl.pseudo_qconst1 i1 [10, 16]
00000000: 9d81 f435 0238 adf4 4da7 5a9e 042c 1f15
00000010: 5bec 883a 813a ca89 fc22 0403 d151 858f
00000020: 9dea 3188 3046 46f7 23de 997f 2d87 cf4a
00000030: d8e5 9f82 509f 971b ea2b 83ac 568b 812d
00000040: 697c 5ed4 5b16 d628 dcca 6f53 a646 b181
00000050: d277 87c4 a181 45fd 503b 9e88 2bbb 500a
00000060: 510e e131 8135 3550 22c4 38f2 8d98 4a2c
00000070: d1dc 39a8 363f db81 a250 b647 5060 a78b
00000080: e159 5448 408a ad62 0f1e a881 afa6 5008
00000090: c3b9 4d9d 3a08 c743 8132 d405 ae45 3ad4
-99 -127 -12 53 2 56 -83 -12
77 -89 90 -98 4 44 31 21
91 -20 -120 58 -127 58 -54 -119
-4 34 4 3 -47 81 -123 -113
-99 -22 49 -120 48 70 70 -9
35 -34 -103 127 45 -121 -49 74
-40 -27 -97 -126 80 -97 -105 27
-22 43 -125 -84 86 -117 -127 45
105 124 94 -44 91 22 -42 40
-36 -54 111 83 -90 70 -79 -127
-46 119 -121 -60 -95 -127 69 -3
80 59 -98 -120 43 -69 80 10
81 14 -31 49 -127 53 53 80
34 -60 56 -14 -115 -104 74 44
-47 -36 57 -88 54 63 -37 -127
-94 80 -74 71 80 96 -89 -117
-31 89 84 72 64 -118 -83 98
15 30 -88 -127 -81 -90 80 8
-61 -71 77 -99 58 8 -57 67
-127 50 -44 5 -82 69 58 -44

tfl.pseudo_qconst2 i1 [16] scale=0.0057602236 zero_point=127
00000000: d6a4 d580 df10 dcce fa92 a1c7 dda4 f4c2
-0.9734778 -1.2614889 -0.97923803 -1.468857 -0.92163575 -0.6393848 -0.93891644 -1.0195596
-0.76610976 -1.365173 -1.2787696 -1.0598811 -0.93315625 -1.2614889 -0.8006711 -1.0886823

tfl.pseudo_qconst3 i1 [16] scale=0.05729049 zero_point=-128
00000000: 7d5d 4a22 6a60 7f14 580c 1e70 2d60 4e7b
14.494494 12.661199 11.5726795 9.281059 13.405974 12.83307 14.609076 8.478992
12.374746 8.020669 9.051898 13.749718 9.911255 12.83307 11.801841 14.379913

tfl.pseudo_qconst5 i1 [16, 3, 3, 8]
00000000: 05b4 8124 0c08 16b0 fb3e f6f1 082f b6d1
00000010: 13ed aeb5 eae5 e40e 17ad 2bee e4fe e900
00000020: e92b 0efd 340d 1902 f01a cf0b e4eb fd14
00000030: 02c8 f10d d5f3 f9fe eef5 e2fd e80b 231d
00000040: 2110 c5aa fcd9 fc33 051f 3af0 49f8 04ed
00000050: e306 ecf4 0e09 05e9 4b2a d6e9 d481 0b10
00000060: 0ef2 0bf8 df18 f8e4 ffdc e62a 0aff dc31
00000070: d0ee 07ce fae0 f306 f6f4 d9b8 d5e9 dd41
00000080: fcf9 104f d72f d52d e9ee f1d9 e9f8 1547
00000090: 1230 2bed de1e 18e3 2dd6 cb1d cafe edc5
000000a0: e6e2 ff71 12f4 33f4 e762 2c2b f24c f621
000000b0: dfb8 0be8 f9ea f4cf e8da 1de9 48ed 1de8
000000c0: 97d9 0ed4 6dd9 e6fa 85e4 e7ee 5381 e6d6
000000d0: d546 170b f901 cef7 f83c e001 f3ea 2d81
000000e0: d3f2 b1f0 34da 0cb8 2a11 dcda 660b 1f14
000000f0: 1cc0 211a f1e1 f0d4 261c 3017 bdd8 d8e1
5 -76 -127 36 12 8 22 -80
-5 62 -10 -15 8 47 -74 -47
19 -19 -82 -75 -22 -27 -28 14
23 -83 43 -18 -28 -2 -23 0
-23 43 14 -3 52 13 25 2
-16 26 -49 11 -28 -21 -3 20
2 -56 -15 13 -43 -13 -7 -2
-18 -11 -30 -3 -24 11 35 29
33 16 -59 -86 -4 -39 -4 51
5 31 58 -16 73 -8 4 -19
-29 6 -20 -12 14 9 5 -23
75 42 -42 -23 -44 -127 11 16
14 -14 11 -8 -33 24 -8 -28
-1 -36 -26 42 10 -1 -36 49
-48 -18 7 -50 -6 -32 -13 6
-10 -12 -39 -72 -43 -23 -35 65
-4 -7 16 79 -41 47 -43 45
-23 -18 -15 -39 -23 -8 21 71
18 48 43 -19 -34 30 24 -29
45 -42 -53 29 -54 -2 -19 -59
-26 -30 -1 113 18 -12 51 -12
-25 98 44 43 -14 76 -10 33
-33 -72 11 -24 -7 -22 -12 -49
-24 -38 29 -23 72 -19 29 -24
-105 -39 14 -44 109 -39 -26 -6
-123 -28 -25 -18 83 -127 -26 -42
-43 70 23 11 -7 1 -50 -9
-8 60 -32 1 -13 -22 45 -127
-45 -14 -79 -16 52 -38 12 -72
42 17 -36 -38 102 11 31 20
28 -64 33 26 -15 -31 -16 -44
38 28 48 23 -67 -40 -40 -31

tfl.pseudo_qconst7 i1 [8, 3, 3, 8]
00000000: 0ffd e7bc 3e37 2049 cff5 df36 11d7 c556
00000010: 0ce3 baf6 0fbd c21c 16fe eb92 ddc9 c90e
00000020: e31a 8117 cbfe d8c4 23e1 00aa 06cd c4f2
00000030: dc03 bdb5 c9aa 06af e48f 9d08 cafa f3d0
00000040: 1b86 bfe3 3dfa fdfd 280c 0d35 2a35 3ef6
00000050: daf8 f04c f212 f806 d3d9 052f b9f7 c73e
00000060: 0530 df07 4c3f 2202 ed38 2834 195b 3a02
00000070: 50f7 051b 07f7 0441 38f3 97bb 4649 42dc
00000080: 0001 81dd 1b61 16f4 baee 01e7 5727 0957
00000090: c024 2669 312d 0dd0 b9e8 a30b 4e29 f2ef
000000a0: ec40 ad0f 410c f4da d7bc ffde d116 0ffa
000000b0: 3a1c d4df fbd5 3129 5239 c111 4e4f 2fae
000000c0: e6b5 1dc6 fa35 f5f5 f3d2 44fb 5219 f881
000000d0: 0422 f5d0 642f cfc4 cf1e e045 f002 8f81
000000e0: fe01 1017 17dc c1f3 cd28 0d27 0dc9 c442
000000f0: e804 b6df d5c6 c8a2 c6da c634 0124 cce6
15 -3 -25 -68 62 55 32 73
-49 -11 -33 54 17 -41 -59 86
12 -29 -70 -10 15 -67 -62 28
22 -2 -21 -110 -35 -55 -55 14
-29 26 -127 23 -53 -2 -40 -60
35 -31 0 -86 6 -51 -60 -14
-36 3 -67 -75 -55 -86 6 -81
-28 -113 -99 8 -54 -6 -13 -48
27 -122 -65 -29 61 -6 -3 -3
40 12 13 53 42 53 62 -10
-38 -8 -16 76 -14 18 -8 6
-45 -39 5 47 -71 -9 -57 62
5 48 -33 7 76 63 34 2
-19 56 40 52 25 91 58 2
80 -9 5 27 7 -9 4 65
56 -13 -105 -69 70 73 66 -36
0 1 -127 -35 27 97 22 -12
-70 -18 1 -25 87 39 9 87
-64 36 38 105 49 45 13 -48
-71 -24 -93 11 78 41 -14 -17
-20 64 -83 15 65 12 -12 -38
-41 -68 -1 -34 -47 22 15 -6
58 28 -44 -33 -5 -43 49 41
82 57 -63 17 78 79 47 -82
-26 -75 29 -58 -6 53 -11 -11
-13 -46 68 -5 82 25 -8 -127
4 34 -11 -48 100 47 -49 -60
-49 30 -32 69 -16 2 -113 -127
-2 1 16 23 23 -36 -63 -13
-51 40 13 39 13 -55 -60 66
-24 4 -74 -33 -43 -58 -56 -94
-58 -38 -58 52 1 36 -52 -26

tfl.pseudo_qconst8 i1 [8] scale=0.005225486 zero_point=127
00000000: e6f8 083d 2a80 49f0
-0.7994994 -0.70544064 -0.62183285 -0.34488207 -0.44416633 -1.3324989 -0.28217626 -0.74724454

tfl.pseudo_qconst9 i1 [8] scale=0.11789226 zero_point=-128
00000000: a7c3 ceeb 11ad 7fed
4.597798 7.8987813 9.195596 12.614471 17.094378 5.3051515 30.062527 12.850256

tfl.pseudo_qconst11 i1 [8, 3, 3, 1]
00000000: b50b 5606 027f 172c ea7e ab52 3783 5ff8
00000010: c47f d16f 0af9 14c9 7f4f 9650 f981 5c2e
00000020: a2c3 50e6 3e1b 4dde 1ae5 81bf 9416 2b46
00000030: 7ff3 10fa 10d3 81c4 bac8 f2b4 f451 e1d4
00000040: c981 17bf 4025 454a
-75 11 86 6 2 127 23 44
-22 126 -85 82 55 -125 95 -8
-60 127 -47 111 10 -7 20 -55
127 79 -106 80 -7 -127 92 46
-94 -61 80 -26 62 27 77 -34
26 -27 -127 -65 -108 22 43 70
127 -13 16 -6 16 -45 -127 -60
-70 -56 -14 -76 -12 81 -31 -44
-55 -127 23 -65 64 37 69 74
