colab - codigo de treino/mnist_simple.tflite (tflite, 10248 bytes, 12 tensors)

arith.constant f2 [8]
00000000: e72c a21b 1e20 409c 0325 9b30 de1f 572a
0.0766 0.003727 0.00804 -0.00415 0.01958 0.1439 0.007683 0.04953

arith.constant1 f2 [8, 3, 3, 1]
00000000: 12b4 a728 a034 2f25 e71d da36 fd2c c730
00000010: c6ac ca34 7db2 3232 3330 c3b4 3633 9ba4
00000020: 8db0 d334 12af 2634 3826 4ea4 e929 1cb0
00000030: c334 ed31 ebb3 8732 42a4 2cb5 8333 7c2f
00000040: a3b3 fbb0 8a32 39ac be31 182d 2933 4fae
00000050: c12c f2ac eab5 04b2 02b5 942c 5f30 1333
00000060: 7636 66a9 882a 38a5 792a 8db0 ecb7 8ab3
00000070: 58b4 eeb2 faaa c0b4 02aa 0f35 caaf 4aaf
00000080: 89b0 3eb5 c22b 5bb1 4131 292e b531 1a32
-0.2544 0.03635 0.289 0.02025 0.005764 0.4282 0.07794 0.1493
-0.0746 0.2993 -0.2028 0.1936 0.1312 -0.2976 0.2253 -0.01799
-0.1422 0.3015 -0.1105 0.2593 0.02429 -0.01682 0.04617 -0.1284
0.2976 0.1852 -0.2474 0.204 -0.01663 -0.3232 0.2347 0.11694
-0.2386 -0.1556 0.2043 -0.066 0.1794 0.0796 0.2238 -0.0986
0.0743 -0.0773 -0.3696 -0.188 -0.313 0.07153 0.1366 0.2211
0.4038 -0.04218 0.05103 -0.02039 0.05057 -0.1422 -0.495 -0.2356
-0.2715 -0.2166 -0.0545 -0.2969 -0.04694 0.3162 -0.1217 -0.1139
-0.1417 -0.3276 0.0606 -0.1674 0.1642 0.09625 0.1783 0.1907

arith.constant2 f2 [16]
00000000: cebb 0dbd d2bb e0bd 60bb 23b9 84bb 15bc
00000010: 1eba 75bd 1ebd 3fbc 74bb 0dbd 6cba 5dbc
-0.9756 -1.263 -0.9775 -1.469 -0.922 -0.642 -0.9395 -1.0205
-0.7646 -1.364 -1.279 -1.062 -0.9316 -1.263 -0.8027 -1.091

arith.constant3 f2 [16]
00000000: 434b 524a c849 a248 b24a 6d4a 4e4b 3b48
00000010: 2d4a 0448 8448 e34a f348 6c4a e949 304b
14.52 12.64 11.56 9.266 13.39 12.85 14.61 8.46
12.35 8.03 9.03 13.77 9.9 12.84 11.82 14.375

arith.constant4 f2 [8]
00000000: 66ba a4b9 feb8 80b5 15b7 54bd 7ab4 fcb9
-0.8 -0.705 -0.624 -0.3438 -0.4426 -1.332 -0.2798 -0.748

arith.constant5 f2 [8]
00000000: a144 dd47 9c48 4e4a 434c 5645 844f 714a
4.63 7.863 9.22 12.61 17.05 5.336 30.06 12.88

arith.constant7 f2 [10]
00000000: e0a7 3b30 1f39 0fb0 4fab ae30 f0b5 ccb6
00000010: f3b5 3434
-0.03076 0.1322 0.64 -0.1268 -0.0571 0.1462 -0.371 -0.4248
-0.3718 0.2627

arith.constant8 f2 [10, 16]
00000000: 31bd a5be d3b0 8c39 a225 e739 53bc d6b0
00000010: 0c3c a7bc b43c 1fbd 492a 9538 8936 6734
00000020: 4d3c b7b3 adbd 7839 05be 7e39 14b9 a2bd
00000030: 87a9 8236 c02a bf28 76b8 a33b d6bd 56bd
00000040: 4bbc cdb3 4038 39bd 3638 173a 0e3a f1ad
00000050: 2c36 e6b5 79bc 873d d637 47bd 3ab8 6c3a
00000060: aeb7 2fb5 a6bc 10be aa3b a4bc 09bd 2c35
00000070: 49b4 2038 febd 09bc 1e3c 9dbd 1bbe 5838
00000080: ef3c cf3d 633c 16b8 413c 1934 f6b7 9737
00000090: c2b6 15b9 363d cb3b 3ebc 9c3a 6bbb f5bd
000000a0: 37b8 763d 94bd 8cb9 5cbc d7bd 563a b0a7
000000b0: 643b 7539 85bc 83bd d437 5eba 5e3b 8b2f
000000c0: 473c 2432 9eb6 2a39 babe 9d39 9a39 423c
000000d0: 3a37 66ba f039 e0b1 1abe 85bd d93b 9e38
000000e0: c3b8 69b7 c539 76bc 7739 663a 86b7 7abe
000000f0: ccbc 0f3c 8bbb 473b 173c e43c 89bc f9bd
00000100: 07b6 433c 033c dd3a 173a a1bd efbb aa3c
00000110: 8d31 ca35 32bc 13be b5bb 4bbc a73b 3b2e
00000120: a5ba bcbb 303c 5bbd 433a c62e 2cba 433b
00000130: dfbe 6a39 bfb8 922c 74bc 6d3b 3e3a b9b8
-1.298 -1.661 -0.1508 0.6934 0.022 0.738 -1.081 -0.1511
1.012 -1.163 1.176 -1.28 0.0491 0.5728 0.4084 0.2751
1.075 -0.2411 -1.419 0.6836 -1.505 0.6865 -0.635 -1.408
-0.04318 0.4067 0.05273 0.03708 -0.5576 0.9546 -1.459 -1.334
-1.073 -0.2438 0.5312 -1.306 0.5264 0.761 0.757 -0.09283
0.3857 -0.3687 -1.118 1.382 0.4897 -1.319 -0.5283 0.8027
-0.48 -0.324 -1.162 -1.516 0.958 -1.16 -1.259 0.3232
-0.2678 0.5156 -1.498 -1.009 1.029 -1.403 -1.526 0.543
1.233 1.452 1.097 -0.5107 1.063 0.256 -0.4976 0.4744
-0.4224 -0.6353 1.303 0.974 -1.061 0.826 -0.9272 -1.489
-0.527 1.365 -1.395 -0.6934 -1.09 -1.46 0.792 -0.03003
0.924 0.682 -1.13 -1.378 0.4893 -0.796 0.921 0.11786
1.069 0.1919 -0.4136 0.6455 -1.682 0.7017 0.7 1.064
0.4517 -0.8 0.742 -0.1836 -1.525 -1.38 0.981 0.577
-0.595 -0.4631 0.721 -1.115 0.683 0.8 -0.4702 -1.619
-1.199 1.015 -0.943 0.9097 1.022 1.223 -1.134 -1.493
-0.3767 1.065 1.003 0.858 0.761 -1.407 -0.9917 1.166
0.1735 0.3618 -1.049 -1.519 -0.9634 -1.073 0.9565 0.09735
-0.8306 -0.967 1.047 -1.339 0.7827 0.10583 -0.7715 0.9077
-1.718 0.677 -0.5933 0.0714 -1.113 0.928 0.7803 -0.5903

arith.constant9 f2 [8, 3, 3, 8]
00000000: 252a dba0 35ad 05b3 6132 a931 982e 7733
00000010: 08b1 5ba8 d2ae 8c31 f52a 2eb0 0db2 6f34
00000020: eb28 d9ad 26b3 f9a7 012a d2b2 65b2 cc2d
00000030: 732c 4d9f 5cac a8b5 1caf 9bb1 98b1 b429
00000040: 02ae 512d 83b6 c22c 7cb1 d09d 15b0 28b2
00000050: 472f 6fae ad8a 65b4 c524 32b1 1ab2 95a9
00000060: 51af 2f21 dfb2 b4b3 a0b1 6eb4 2325 25b4
00000070: bead cbb5 16b5 2826 89b1 30a5 35a9 f1b0
00000080: 732d 3eb6 a8b2 f2ad 3b32 21a5 1aa1 ada0
00000090: cb2f bb28 e728 3031 1530 1f31 0232 e1a7
000000a0: 5faf 15a6 5eaa 5433 3da9 e72a 53a6 a524
000000b0: 67b0 9aaf fd23 8a30 deb2 4fa7 88b1 0132
000000c0: 2824 a730 7aae 3e25 6a33 1532 ab2e b61e
000000d0: 79ab 6f31 b52f 0131 cc2c 6734 a631 c31c
000000e0: b733 d3a6 2324 372d 7825 b2a6 b622 5332
000000f0: 6931 37a9 12b5 b7b2 ca32 1133 5f32 10af
00000100: a182 a61a 28b6 d9ae 322d b434 2e2c c2a8
00000110: cab2 17ab 8d1b ecac 3a34 8b2f 9d26 3634
00000120: c3b2 aa2f 0830 9335 2f31 c830 9a29 1bb1
00000130: 78b3 1fad eeb4 8c28 2034 4f30 ffa9 10ab
00000140: 30ac c232 6ab4 492a da32 f428 01a9 09b0
00000150: 4fb0 3ab3 969c 1eaf 04b1 c22c 2b2a d9a4
00000160: 2832 f62d 9eb0 f2ae 00a4 93b0 3231 4e30
00000170: 5d34 1632 a2b2 052b 1d34 2b34 0031 5cb4
00000180: 96ad fab3 382e 2bb2 20a5 9c31 a9a8 d3a8
00000190: 59a9 deb0 2933 dfa3 5434 402d 60a6 b9b6
000001a0: 6f23 292f 87a8 10b1 4e35 f830 37b1 60b2
000001b0: 52b1 902e ddae 6e33 e0aa f11f 1eb6 dfb6
000001c0: 9c9f d519 ba2a fd2c e72c e4af d5b2 99a9
000001d0: 81b1 4730 9829 3730 9c29 ffb1 82b2 1733
000001e0: 3bad 7923 05b4 3daf 9fb0 3bb2 1cb2 13b5
000001f0: 39b2 1bb0 4eb2 a131 5f1a bb2f a7b1 a2ad
0.048 -0.00948 -0.08136 -0.2194 0.1993 0.1769 0.103 0.2333
-0.1572 -0.03403 -0.10657 0.1733 0.05435 -0.1306 -0.1891 0.277
0.03842 -0.0914 -0.2234 -0.03114 0.0469 -0.2131 -0.1998 0.0906
0.0695 -0.00713 -0.0681 -0.3535 -0.1111 -0.1752 -0.1748 0.04456
-0.0939 0.08307 -0.407 0.07434 -0.1714 -0.005676 -0.1276 -0.1924
0.1137 -0.1005 -0.0002037 -0.2747 0.01863 -0.1624 -0.1907 -0.0436
-0.1143 0.010124 -0.2147 -0.2407 -0.1758 -0.2769 0.02007 -0.259
-0.0897 -0.362 -0.3179 0.02405 -0.173 -0.02026 -0.04068 -0.1544
0.08514 -0.3901 -0.208 -0.0929 0.1947 -0.02003 -0.009964 -0.00913
0.12177 0.03696 0.0383 0.1621 0.1276 0.16 0.1877 -0.03078
-0.1152 -0.02376 -0.04974 0.229 -0.04092 0.05392 -0.0247 0.01814
-0.1376 -0.1188 0.0156 0.1418 -0.2146 -0.02855 -0.1729 0.1876
0.01624 0.1454 -0.1012 0.02048 0.2317 0.1901 0.1042 0.006554
-0.05838 0.1698 0.1204 0.1564 0.07495 0.2751 0.1765 0.00465
0.2411 -0.02666 0.01616 0.0815 0.02136 -0.02615 0.01311 0.1976
0.1691 -0.04074 -0.317 -0.2098 0.2122 0.2208 0.1991 -0.11035
-4.01e-05 0.003246 -0.3848 -0.107 0.0812 0.294 0.0653 -0.03717
-0.2122 -0.0554 0.003687 -0.0769 0.2642 0.11786 0.02583 0.2632
-0.2113 0.11975 0.126 0.3484 0.162 0.1494 0.04376 -0.1595
-0.2334 -0.08 -0.308 0.03552 0.2578 0.1346 -0.04684 -0.05518
-0.0654 0.2112 -0.276 0.0491 0.2141 0.0387 -0.0391 -0.1261
-0.1346 -0.2258 -0.00448 -0.1112 -0.1567 0.07434 0.0482 -0.01894
0.1924 0.09314 -0.1443 -0.1085 -0.01563 -0.143 0.1624 0.1345
0.2727 0.1902 -0.2073 0.05484 0.257 0.2605 0.1562 -0.2725
-0.0873 -0.2493 0.09717 -0.1927 -0.02002 0.1753 -0.0364 -0.0377
-0.04178 -0.1521 0.2238 -0.01537 0.2705 0.08203 -0.0249 -0.4202
0.01452 0.1119 -0.03537 -0.1582 0.3315 0.1553 -0.163 -0.1992
-0.1663 0.10254 -0.10724 0.2322 -0.0537 0.007755 -0.3823 -0.4294
-0.00743 0.002848 0.05255 0.07794 0.0766 -0.1233 -0.2135 -0.04373
-0.172 0.1337 0.0437 0.1317 0.04382 -0.1874 -0.2034 0.2216
-0.0817 0.014595 -0.2512 -0.1131 -0.1444 -0.1947 -0.1909 -0.3171
-0.1945 -0.1283 -0.197 0.1759 0.00311 0.1208 -0.1766 -0.088

arith.constant10 f2 [16, 3, 3, 8]
00000000: 4f25 67b5 84b8 2d31 e52a 4828 2b2e abb5
00000010: 51a5 6f34 93a9 34ac 5028 a932 47b5 a7b2
00000020: 5c2d 5aad d3b5 5fb5 55ae a6af 0db0 ed2b
00000030: a72e e4b5 2332 1bad d3af 2aa1 abae 6d97
00000040: a3ae 2f32 042c 6ea2 7833 402b 0c2f 5720
00000050: 8aac 562f f0b2 522a 05b0 e5ad dea1 a32d
00000060: a120 ebb3 2bac 502b 2fb2 4eab 3ea8 69a0
00000070: 2cad 54aa 50b0 a9a3 e4ae 482a f830 1b30
00000080: ad30 802c 33b4 1db6 05a5 81b1 bca4 3233
00000090: a224 bb2f 3333 08ac 8d34 18a8 0824 d7ac
000000a0: 50af 2026 15ad 31aa 402b 5628 d924 ddad
000000b0: b934 3731 46b1 abad 88b1 f4b7 7729 fc2b
000000c0: 212b ccaa 6c29 d5a7 2ab0 ed2d 08a8 f0ae
000000d0: 4799 90b0 95ae 3231 d728 be9a 91b0 2932
000000e0: 00b2 9aac 9626 4fb2 fba5 e8af 51aa 5c26
000000f0: 13a9 1aaa d9b0 86b4 6eb1 a6ad 6bb0 0c34
00000100: 38a4 2ca7 fd2b f134 20b1 e831 59b1 af31
00000110: e0ad 84ac b3ab e7b0 ccad f1a7 622d 6d34
00000120: 952a 5130 be2f d8aa 32ae 7a2d 522c 3cad
00000130: 1830 7daf bcb0 422d dbb0 b79d 01ab 47b1
00000140: c4ac 64ad 4e9b 1435 542a 2ea8 9f30 62a8
00000150: 6fac 6834 e62f d02f f4a8 d632 7fa7 ef2d
00000160: ffad 7eb2 9127 64ac b8a4 0dac 45a8 70b0
00000170: 50ac dbae 2b2d 30ac 7a32 e1aa 262d 3fac
00000180: c0b4 fdae 0129 faaf e334 f7ae b2ac a3a4
00000190: 8cb5 1aad 7eac 5daa 7d33 b8b5 a0ac 8baf
000001a0: b7af 4732 332c dc27 c0a4 331c 79b0 97a6
000001b0: 88a6 3532 8cae 9c18 4da9 8dac b230 95b6
000001c0: 9fb0 c2a9 14b4 afaa 6431 ebaf 2d29 70b3
000001d0: 5a30 352b 76af cfaf 4f35 b428 6f2e 212c
000001e0: d42d a3b2 df2e 7e2d 38aa 7aae c6aa 83b0
000001f0: e82f bf2d fb30 da2c edb2 31b0 23b0 76ae
0.02074 -0.3376 -0.5645 0.1617 0.05386 0.03345 0.0964 -0.3542
-0.02077 0.277 -0.04355 -0.0657 0.0337 0.2081 -0.3298 -0.2079
0.08374 -0.0836 -0.364 -0.3357 -0.09894 -0.1195 -0.1266 0.06192
0.10394 -0.3682 0.1918 -0.0798 -0.12225 -0.010086 -0.1042 -0.001813
-0.1037 0.1932 0.06274 -0.01256 0.2334 0.05664 0.1101 0.00848
-0.0709 0.1146 -0.2168 0.04938 -0.1256 -0.0921 -0.01146 0.0881
0.00904 -0.2474 -0.0651 0.05713 -0.1932 -0.05707 -0.03314 -0.00861
-0.0808 -0.04944 -0.1348 -0.01496 -0.10767 0.04907 0.1553 0.1283
0.1461 0.0703 -0.2625 -0.382 -0.0196 -0.172 -0.0185 0.2249
0.0181 0.1208 0.225 -0.063 0.2844 -0.03198 0.01575 -0.0756
-0.11426 0.02393 -0.0794 -0.04837 0.05664 0.03387 0.01894 -0.0916
0.2952 0.163 -0.1648 -0.08856 -0.1729 -0.497 0.0427 0.06238
0.0557 -0.0531 0.04236 -0.0306 -0.1301 0.0926 -0.0315 -0.1084
-0.002577 -0.1426 -0.10284 0.1624 0.0378 -0.003292 -0.1427 0.1925
-0.1875 -0.0719 0.02573 -0.1971 -0.02336 -0.12354 -0.04935 0.02484
-0.03964 -0.04767 -0.1515 -0.2827 -0.1697 -0.08826 -0.1381 0.253
-0.01648 -0.02802 0.0624 0.3088 -0.1602 0.1846 -0.1671 0.1776
-0.0918 -0.07056 -0.06015 -0.1532 -0.0906 -0.03102 0.0841 0.2766
0.05142 0.1349 0.121 -0.05347 -0.0968 0.0856 0.0675 -0.0818
0.1279 -0.117 -0.148 0.08215 -0.1517 -0.00558 -0.05472 -0.1649
-0.07446 -0.0842 -0.003567 0.3174 0.04944 -0.03265 0.1444 -0.03424
-0.0693 0.2754 0.1234 0.1221 -0.0387 0.2136 -0.02928 0.0927
-0.0937 -0.2029 0.02956 -0.0686 -0.01843 -0.0633 -0.03336 -0.1387
-0.0674 -0.1071 0.08075 -0.0654 0.2024 -0.05374 0.08044 -0.06635
-0.2969 -0.1092 0.0391 -0.12463 0.3054 -0.1088 -0.07336 -0.01811
-0.3467 -0.0797 -0.0702 -0.0497 0.234 -0.3574 -0.07227 -0.11786
-0.12054 0.1962 0.0656 0.0307 -0.01855 0.0041 -0.1398 -0.02574
-0.02551 0.194 -0.1023 0.00225 -0.0414 -0.0711 0.1467 -0.4114
-0.1444 -0.04498 -0.255 -0.05222 0.1685 -0.1237 0.04044 -0.2324
0.136 0.0563 -0.1166 -0.122 0.3318 0.03674 0.1005 0.0645
0.09106 -0.2074 0.10736 0.0858 -0.04858 -0.1012 -0.05292 -0.141
0.12354 0.0898 0.1556 0.0758 -0.2164 -0.131 -0.1293 -0.10095

arith.constant11 f2 [8]
00000000: 512a 56b3 5f2e 5d2e ceaf 7d30 6d2c d4ab
0.04935 -0.2292 0.09955 0.0994 -0.12195 0.1403 0.06915 -0.06116

arith.constant12 f2 [16]
00000000: 9ea8 56b0 83ad e3aa f4ad ee29 d8b3 60b4
00000010: 63a7 65b1 1f26 5bae b9ac e625 2ab0 b5b7
-0.03607 -0.1355 -0.0861 -0.0538 -0.093 0.04633 -0.2451 -0.2734
-0.02885 -0.1686 0.02391 -0.0993 -0.0738 0.02304 -0.1301 -0.4817
