esp_mnist_digitos_wifi/src/mnist_cnn_small_int8.tflite (tflite, 20080 bytes, 4 tensors)

tfl.pseudo_qconst1 i1 [10, 32]
000000 ab 9c 4e be 2d 1e 47 c5 4c f9 c6 e1 b0 31 16 d3
       -85 -100 78 -66 45 30 71 -59 76 -7 -58 -31 -80 49 22 -45
000010 1a f8 f9 e5 4a 20 fe 22 3a ef c8 a4 0f 81 38 2e
       26 -8 -7 -27 74 32 -2 34 58 -17 -56 -92 15 -127 56 46
000020 24 bf 36 1b 4b 3a 14 c9 b7 4e 21 2a 01 9d 48 a9
       36 -65 54 27 75 58 20 -55 -73 78 33 42 1 -99 72 -87
000030 40 4e e9 9e 14 5b 1e e7 81 52 ca 4a cd 36 ba e6
       64 78 -23 -98 20 91 30 -25 -127 82 -54 74 -51 54 -70 -26
000040 de 5f 22 8b bb a5 fc 72 b7 6f fe e4 81 26 06 44
       -34 95 34 -117 -69 -91 -4 114 -73 111 -2 -28 -127 38 6 68
000050 73 8c b2 96 10 9c 9e 5b 41 3c b1 54 ba c4 f4 61
       115 -116 -78 -106 16 -100 -98 91 65 60 -79 84 -70 -60 -12 97
000060 05 bd c5 06 21 9e 02 c3 ad 36 48 81 14 20 16 b4
       5 -67 -59 6 33 -98 2 -61 -83 54 72 -127 20 32 22 -76
000070 39 99 16 1b df dc cc be 17 41 a2 1f 2e 26 ff 23
       57 -103 22 27 -33 -36 -52 -66 23 65 -94 31 46 38 -1 35
000080 6e 55 81 9b 85 d1 5b be 4a a0 fe 33 f7 dd 66 dc
       110 85 -127 -101 -123 -47 91 -66 74 -96 -2 51 -9 -35 102 -36
000090 58 ff ed b2 ee bf eb 19 3e 31 d1 10 5a 46 7e ac
       88 -1 -19 -78 -18 -65 -21 25 62 49 -47 16 90 70 126 -84
0000a0 30 0b 12 fc ce 02 81 23 50 f7 c1 30 2d 3c 2c dc
       48 11 18 -4 -50 2 -127 35 80 -9 -63 48 45 60 44 -36
0000b0 2b 35 d9 1c 3a b1 0a d0 f3 e1 e0 0a 4f 5e 1c 44
       43 53 -39 28 58 -79 10 -48 -13 -31 -32 10 79 94 28 68
0000c0 c7 d0 ed 49 c5 fa fa 05 f8 00 3b 02 19 49 55 e3
       -57 -48 -19 73 -59 -6 -6 5 -8 0 59 2 25 73 85 -29
0000d0 f3 04 81 c7 32 37 d4 08 b9 1e 4c 9b ec 03 da 53
       -13 4 -127 -57 50 55 -44 8 -71 30 76 -101 -20 3 -38 83
0000e0 7f ab b3 eb d0 0b b8 a0 31 d5 97 c5 ad 3c 58 61
       127 -85 -77 -21 -48 11 -72 -96 49 -43 -105 -59 -83 60 88 97
0000f0 d1 1d 71 4b b8 49 1c 4e 96 d6 d6 6d 43 91 de 37
       -47 29 113 75 -72 73 28 78 -106 -42 -42 109 67 -111 -34 55

tfl.pseudo_qconst3 i1 [32, 400]
000000 f3 d2 3e 0d 13 ed f4 f4 04 f5 f3 de 17 f2 1a f3
       -13 -46 62 13 19 -19 -12 -12 4 -11 -13 -34 23 -14 26 -13
000010 34 10 7a 0a 0b df 24 18 dd 02 f8 44 0f 2c fc 0b
       52 16 122 10 11 -33 36 24 -35 2 -8 68 15 44 -4 11
000020 1e 0d 55 f8 df ec 0c d5 cd 02 d9 08 e1 26 21 f5
       30 13 85 -8 -33 -20 12 -43 -51 2 -39 8 -31 38 33 -11
000030 fe 12 f5 cd 07 fd 1c e1 ed ed 10 ff c2 fe 35 10
       -2 18 -11 -51 7 -3 28 -31 -19 -19 16 -1 -62 -2 53 16
000040 0d 22 16 0d 4d 0c 26 06 1d f9 0c ee c5 1d 3a 2a
       13 34 22 13 77 12 38 6 29 -7 12 -18 -59 29 58 42
000050 0c e0 1a 2e f9 0e f6 0d d6 df e6 0e 2d 01 f5 ed
       12 -32 26 46 -7 14 -10 13 -42 -33 -26 14 45 1 -11 -19
000060 16 0b 42 27 dc 09 2f 04 d5 fc e3 13 06 f3 f0 fe
       22 11 66 39 -36 9 47 4 -43 -4 -29 19 6 -13 -16 -2
000070 05 36 f6 20 32 f7 21 0b 03 c7 1e 3e 16 f5 34 23
       5 54 -10 32 50 -9 33 11 3 -57 30 62 22 -11 52 35
000080 f9 06 e2 13 03 07 f6 f4 1a 12 28 13 da 3f 01 f0
       -7 6 -30 19 3 7 -10 -12 26 18 40 19 -38 63 1 -16
000090 d0 49 bc fe 16 10 f1 1c ff 0a ee 30 f0 f6 2b 05
       -48 73 -68 -2 22 16 -15 28 -1 10 -18 48 -16 -10 43 5
0000a0 0f 03 0e ce 01 d4 df d1 23 12 27 f2 e3 eb 19 26
       15 3 14 -50 1 -44 -33 -47 35 18 39 -14 -29 -21 25 38
0000b0 f8 29 e0 db 0c d5 11 f3 1b e3 2a 2f ef 23 46 2e
       -8 41 -32 -37 12 -43 17 -13 27 -29 42 47 -17 35 70 46
0000c0 21 33 da fc 3a f2 e9 f6 10 1f f9 5c e0 f4 66 17
       33 51 -38 -4 58 -14 -23 -10 16 31 -7 92 -32 -12 102 23
0000d0 04 ee 11 ee de 1c f7 f9 0a ca fb f5 16 05 16 f6
       4 -18 17 -18 -34 28 -9 -7 10 -54 -5 -11 22 5 22 -10
0000e0 31 cc d4 11 03 f8 e5 29 f6 3a f2 2c 1c 1b 18 f4
       49 -52 -44 17 3 -8 -27 41 -10 58 -14 44 28 27 24 -12
0000f0 2d f6 40 f1 08 b8 dd 13 09 2c 10 d9 24 f7 05 51
       45 -10 64 -15 8 -72 -35 19 9 44 16 -39 36 -9 5 81

tfl.pseudo_qconst5 i1 [16, 3, 3, 8]
000000 b7 7f c2 bd cd cf 21 d8 c7 48 c8 c1 fc c0 c1 fb
       -73 127 -62 -67 -51 -49 33 -40 -57 72 -56 -63 -4 -64 -63 -5
000010 b9 12 ce cb 9c 06 dc dd 15 27 14 d4 2a f5 07 08
       -71 18 -50 -53 -100 6 -36 -35 21 39 20 -44 42 -11 7 8
000020 fc 41 ca 00 3f eb 37 df 8f 70 d5 ef 23 a9 ce c7
       -4 65 -54 0 63 -21 55 -33 -113 112 -43 -17 35 -87 -50 -57
000030 27 e9 2c 16 3c 3b 3a 14 1c 0b f1 f1 1f fe 13 05
       39 -23 44 22 60 59 58 20 28 11 -15 -15 31 -2 19 5
000040 0a 53 08 24 3a 13 19 19 c6 29 de 32 ea 06 db 11
       10 83 8 36 58 19 25 25 -58 41 -34 50 -22 6 -37 17
000050 ef 2f db 2e c4 c1 d2 f6 f5 bd 38 af 19 36 33 09
       -17 47 -37 46 -60 -63 -46 -10 -11 -67 56 -81 25 54 51 9
000060 ae d6 c6 f3 e5 bd da e1 1f e8 25 b7 e7 0d f6 10
       -82 -42 -58 -13 -27 -67 -38 -31 31 -24 37 -73 -25 13 -10 16
000070 18 d1 42 ac 12 02 36 1b e4 d7 fc e1 03 c7 f5 f2
       24 -47 66 -84 18 2 54 27 -28 -41 -4 -31 3 -57 -11 -14
000080 4d ea 12 81 49 02 3c 3d 27 a2 2e df 2d 37 1f 2f
       77 -22 18 -127 73 2 60 61 39 -94 46 -33 45 55 31 47
000090 ea 60 eb dd 05 fc ea 02 f3 07 e7 f0 dc 08 d6 d7
       -22 96 -21 -35 5 -4 -22 2 -13 7 -25 -16 -36 8 -42 -41
0000a0 30 be 26 16 21 fa 27 07 07 7f e3 33 22 1e 03 1e
       48 -66 38 22 33 -6 39 7 7 127 -29 51 34 30 3 30
0000b0 d8 4d c5 1b e3 cb d1 ed 2a c9 32 b0 ea e9 f8 f8
       -40 77 -59 27 -29 -53 -47 -19 42 -55 50 -80 -22 -23 -8 -8
0000c0 15 11 23 36 28 04 1f 0c f4 51 fe 40 f9 ec 1e f6
       21 17 35 54 40 4 31 12 -12 81 -2 64 -7 -20 30 -10
0000d0 09 11 0a bf ca e3 05 09 05 ba e8 23 d9 2d d1 61
       9 17 10 -65 -54 -29 5 9 5 -70 -24 35 -39 45 -47 97
0000e0 03 aa 2c f8 c8 32 05 56 a2 c0 a4 f3 f8 fc d8 04
       3 -86 44 -8 -56 50 5 86 -94 -64 -92 -13 -8 -4 -40 4
0000f0 1d 81 fe 42 43 37 0a b6 b8 e1 c6 45 1c 34 02 0d
       29 -127 -2 66 67 55 10 -74 -72 -31 -58 69 28 52 2 13

tfl.pseudo_qconst7 i1 [8, 3, 3, 1]
000000 00 e6 52 c2 63 7f 2f 37 19 8e c6 bc 3e c7 d9 7f
       0 -26 82 -62 99 127 47 55 25 -114 -58 -68 62 -57 -39 127
000010 49 06 33 11 58 27 f9 6b 19 3a 7f 57 fb a1 6f fe
       73 6 51 17 88 39 -7 107 25 58 127 87 -5 -95 111 -2
000020 81 43 05 d2 59 f6 ce 10 59 e2 7f 6c 69 ed 66 64
       -127 67 5 -46 89 -10 -50 16 89 -30 127 108 105 -19 102 100
000030 70 4d 6a 7b 7f cd 31 ce bb 76 1a 45 50 28 7f 81
       112 77 106 123 127 -51 49 -50 -69 118 26 69 80 40 127 -127
000040 b7 21 fe 1f 42 23 60 fc
       -73 33 -2 31 66 35 96 -4
